TaCalor2/.dart_tool/chrome-device/Default/optimization_guide_prediction_model_downloads/5674dd75-044e-46ac-a614-629b0cc4a4cf/model.tflite (tflite, 410364 bytes, 166 tensors)

context_transformer_0/bottleneck_input/norm/add f4 [32]
000000 44 66 45 bd bf 61 18 bd 46 71 f9 3c 0e 84 1a 3e
       -0.04819323 -0.037202593 0.03044952 0.15089437
000010 d4 8f 69 3c 42 7b 0b 3e fe 48 97 bd a7 e4 c9 bd
       0.014255483 0.13621238 -0.07386969 -0.09858065
000020 b3 89 f3 bd 48 96 1f 3d c2 01 8a bd 09 50 39 3e
       -0.118914984 0.03896168 -0.067386165 0.18096937
000030 aa 1f 0a 3d f0 8b 68 3d f2 c5 82 bd b2 89 98 bd
       0.033721603 0.05677408 -0.06385411 -0.07448138
000040 0a 45 04 be 26 42 a4 3d 20 d1 29 3d f0 50 89 bd
       -0.12916961 0.08020429 0.041459203 -0.06704891
000050 16 f5 9f 3d 62 8a 71 bd 28 10 b4 bc 7a 86 c5 bc
       0.07810418 -0.058969863 -0.02198036 -0.024111975
000060 da 5b 2f be 7a c5 f6 3c 41 9e 5e bd af 8b 4e 3d
       -0.17124882 0.030123461 -0.05435014 0.05042618
000070 ca 1f 7a 3c 1e 95 82 bd be 8d 73 bc fe 51 04 3e
       0.015266368 -0.06376098 -0.014865337 0.12921903

context_transformer_1/bottleneck_input/norm/add f4 [32]
000000 a2 d1 a4 3d e2 36 a5 3c 64 a0 e2 bd 04 1b 05 be
       0.08047797 0.020167772 -0.11065748 -0.12998587
000010 4a 15 de bd c2 50 7b 3d 62 29 e0 bd dc 0c db bd
       -0.10843904 0.061356314 -0.10945393 -0.10695812
000020 1c e3 91 bd 08 3a 3b bd d4 30 83 3d 05 3e f4 bc
       -0.07123396 -0.04570964 0.064057976 -0.02981473
000030 0d a4 0a be fc cb af bd be 3f 66 bd 55 35 ae 3c
       -0.13539143 -0.08583829 -0.056213133 0.021265665
000040 ae 18 e2 bd 6e 1f b3 3d 20 e6 2f 3c 1a ee 91 3d
       -0.110398635 0.08746229 0.010736018 0.071254924
000050 3b 30 23 3d 36 b0 0b bd 24 dc 78 3d b8 00 85 bd
       0.039840918 -0.034103595 0.060756817 -0.06494278
000060 0e bf d8 bd 93 bb c5 3d f4 9d 43 bd 49 e1 1d 3e
       -0.10583316 0.096549176 -0.047758058 0.1541797
000070 f1 c1 49 3d 30 d8 13 3e f2 ef c1 3d 80 e8 2d bb
       0.049257223 0.14437938 0.09469594 -0.0026536286

mention_transformer_0/bottleneck_input/norm/add f4 [32]
000000 46 8f 11 3e f0 44 90 3e d2 31 11 bd c8 da 73 3c
       0.1421481 0.28177595 -0.035447903 0.0148837045
000010 9e 76 c4 3d e6 3c 15 3e a0 7f 87 3e aa 60 7b bc
       0.09592937 0.14574012 0.26464558 -0.015342871
000020 61 18 c3 bd ac 95 a6 bd ae d5 1d bd 49 98 82 3d
       -0.09526134 -0.081340164 -0.03853386 0.06376702
000030 4b 57 95 3b c2 2c be 3d 1f 30 88 bd fc ce 6a 3c
       0.0045575253 0.092858806 -0.06649803 0.0143315755
000040 4a 2d b3 bd 72 07 c2 bd 5a 74 50 be 6d 55 c1 bd
       -0.087488726 -0.09474076 -0.20356885 -0.09440122
000050 13 38 cb bd ee 05 2e be 9a 28 ee bd b0 5a 77 3c
       -0.09922805 -0.1699445 -0.11628838 0.015097305
000060 f1 34 b1 3d 19 2f 0a be 9e 97 78 3e 6a 42 b9 3d
       0.08652676 -0.13494529 0.24276587 0.090458706
000070 a6 3f d7 3c 06 4c c5 3c bc 92 18 be 2d db 11 be
       0.026275467 0.024084102 -0.14899725 -0.14243765

mention_transformer_1/bottleneck_input/norm/add f4 [32]
000000 1d 7a 90 be 8a 92 59 3e 6d cc 5f 3d e8 fd 67 3e
       -0.28218165 0.21247306 0.054638315 0.22655451
000010 a0 cd 43 be 74 64 6d bc 1e ac 04 bd c2 3e 99 be
       -0.19121408 -0.014489282 -0.032390706 -0.29930693
000020 d5 2c 7d be 6a fc 5d be 36 38 8f bd 82 b5 83 3e
       -0.24724133 -0.2167832 -0.06993143 0.25724417
000030 3d 01 65 3d 07 aa aa be ca b2 87 3d 28 31 10 be
       0.055909384 -0.33332846 0.06625898 -0.14081252
000040 47 bd c1 3d 17 2d 54 3e 2d 35 9b 3d 5a bf 71 3d
       0.0945993 0.20720325 0.07578502 0.059020378
000050 d8 6b dd 3c ac 5f 8f be 1d 77 0a 3e 84 a6 5c 3e
       0.027028963 -0.2800268 0.13522 0.21547896
000060 4a 73 86 be 42 78 a7 bd 8c 22 f6 3e 5c e2 83 3e
       -0.26259834 -0.08177234 0.48073232 0.25758636
000070 90 d9 7b bb 70 c1 cc 3d 36 07 03 be 1a 38 32 be
       -0.0038429238 0.09997833 -0.1279572 -0.17404214

context_transformer_0/attention/value/add;context_transformer_0/attention/value/einsum/Einsum;context_transformer_0/attention/value/add/ReadVariableOp/resource f4 [32]
000000 7b 09 8b bd 93 88 5b 3d 78 51 cd 3c 8b 0b 2d 3d
       -0.06788918 0.053597044 0.025063261 0.042247336
000010 37 91 20 3d 50 5d 11 bd 4b 00 09 3d 0a 8b 19 3d
       0.039200988 -0.03548938 0.033447545 0.037486114
000020 2d ea 99 bd 91 84 9c 3d 3d 42 31 bd b0 6a 1a bd
       -0.075153686 0.076424725 -0.04327606 -0.0376994
000030 41 44 95 bd f8 c0 8d bd bc 2b 41 3d 79 92 57 3d
       -0.07288409 -0.069215715 0.04716085 0.05262992
000040 8f 53 75 bd 91 31 db bc e9 ed 36 bd 77 3f 80 bb
       -0.05989414 -0.026757034 -0.044660483 -0.0039138156
000050 20 1d f6 bc 61 ac 99 3d 55 19 a0 bd 2a 2e 85 bd
       -0.030043185 0.07503582 -0.07817332 -0.06502946
000060 80 00 40 3d 8b 36 2e 3c c8 63 14 bd de 73 b6 3c
       0.046875477 0.010633121 -0.03622797 0.022272047
000070 2c e0 b0 3d 0e 58 a4 3d ed e0 39 3c 95 e7 67 3d
       0.086365074 0.080246076 0.01134513 0.05661734

context_transformer_0/bottleneck_input/norm/mul f4 [32, 32]
000000 3c 90 3f 3d 2f 2e 03 be fd f7 31 3d 3b 55 df 3c
       0.046768412 -0.12810586 0.04344939 0.02726232
000010 ad 31 63 bd 5b c3 9f 3c 39 62 2b be 67 4f 94 bd
       -0.055467296 0.019502332 -0.16736688 -0.07241707
000020 c1 24 6b 3c f5 5c 82 3d 8e 69 d5 bc cd be 53 3d
       0.0143520245 0.063653864 -0.026051309 0.051695634
000030 8a 3a c7 3d b4 2d 79 3e bb 2f 24 be 39 56 1d bd
       0.09727962 0.2433384 -0.16033833 -0.038412306
000040 04 e6 ce 3d 9d 34 8b 3d f9 7e 81 be bb 9c ca 3d
       0.10102466 0.067971446 -0.25292185 0.09893175
000050 f1 f1 97 be 61 70 8e bc 7a 3a 45 3c b6 9e 25 3d
       -0.29676774 -0.01738757 0.012037868 0.04043456
000060 44 63 3d 3c 1a b0 a3 bd ba 5f 2d 3c 44 3d ce 3d
       0.011559311 -0.07992573 0.010581905 0.10070279
000070 38 0a 3b 3e bf 14 ce bd 31 4b 56 3d d7 e5 41 3d
       0.18265617 -0.10062551 0.052317802 0.047338333
000080 1c 3c 61 be b8 b4 b9 be 48 c1 b9 be 8c 24 53 be
       -0.21995586 -0.3627069 -0.36280274 -0.2061941
000090 90 15 81 bc 21 a3 ab bd 48 f0 b1 bd 91 56 37 bd
       -0.015757352 -0.08380724 -0.08688408 -0.04476029
0000a0 97 ac a4 bd 64 60 22 bc 00 6e 90 3d 92 36 25 ba
       -0.080407314 -0.009910677 0.07052231 -0.0006302382
0000b0 d5 ee 8d 3d fe 18 7d bd 95 87 db be f2 32 d5 bd
       0.06930319 -0.061791413 -0.42876878 -0.10410108
0000c0 23 2d c4 3e 15 53 65 3e 8d fc 01 3d 2a 35 42 3d
       0.38315687 0.22394975 0.03173499 0.047413982
0000d0 db a5 b9 3d 23 73 e9 bd e2 49 b5 bd f8 71 6d 3e
       0.090648375 -0.11398914 -0.08851983 0.23188007
0000e0 f9 1e 63 be bc f0 1c 3e 5f 24 65 be 68 bb ba 3c
       -0.22179784 0.15326208 -0.22377156 0.02279444
0000f0 05 0a 9a 3e 67 b1 25 3d ff 3d ac 3d 25 ba ac bd
       0.3008577 0.040452387 0.08410262 -0.08433942
000100 22 6b 31 3f 44 91 16 be 45 2b 36 bd 08 53 67 3d
       0.69304097 -0.14703852 -0.04447486 0.05647567
000110 d7 79 7a 3e f9 7c ff 3e 84 db 51 3f ee ab 21 3f
       0.2446054 0.49900034 0.8197558 0.6315297
000120 9e 7e 7b bd 0b 04 fd be fd dc 40 3e 23 f8 1e bf
       -0.06140005 -0.49417147 0.188343 -0.62097377
000130 fb c4 c4 3e 5f f6 49 3f 11 8c 28 bf 81 58 e5 3e
       0.38431534 0.7889156 -0.65838724 0.44794086
000140 91 45 6e 3d f9 b2 be bd 32 7a d3 be e7 b2 58 3e
       0.058171812 -0.0931148 -0.41304165 0.21161996
000150 52 5b 27 bf c7 85 f9 be 59 0c cb bd 58 5c 04 3f
       -0.6537372 -0.48734877 -0.099144645 0.51703405
000160 73 24 62 3e c8 da 24 3e 61 eb 57 3e a6 d6 bc be
       0.22084217 0.16099083 0.21085884 -0.36882514
000170 eb 4c db 3e 92 5c 39 bf b4 7e 6e be 32 64 be bd
       0.4283212 -0.72406876 -0.23290521 -0.092964545
000180 b7 63 08 bf 28 77 12 3f 2f 5d 9d 3c b2 e8 66 3e
       -0.5327715 0.5721307 0.019209472 0.22549704
000190 f3 35 94 be 5a 8b 86 bd 6a 50 fe 3e 88 51 10 be
       -0.2894741 -0.06569548 0.49670726 -0.14093602
0001a0 58 af db be 85 d1 d5 3e 63 1e a3 be 74 c6 f1 bd
       -0.42907214 0.41761413 -0.3185912 -0.1180543
0001b0 ae d2 82 3d fd b5 8f be 37 74 28 3f 50 01 2f be
       0.0638784 -0.28068534 0.6580233 -0.17090344
0001c0 e6 c7 10 3e 72 af 14 3e ae 66 ea 3e 35 b4 cd be
       0.14138755 0.14520052 0.45781463 -0.4017655
0001d0 9c ae 92 3e 1d 12 00 3e 8d eb 68 be 25 e9 8b be
       0.2864884 0.1250691 -0.22746105 -0.27326313
0001e0 68 6c 44 be 2a 98 5d 3e 39 86 75 3d 32 cf 2e 3d
       -0.19181979 0.21640077 0.059942458 0.042678066
0001f0 2e a5 f2 bd b4 24 96 3d 31 40 0d be 51 94 a3 3e
       -0.11847912 0.07331219 -0.13794018 0.31949094
000200 a7 81 86 be 4b 19 0f 3e 8e fb b0 3e 12 77 f1 be
       -0.26270792 0.13974492 0.3456692 -0.47161156
000210 df 14 a8 3d b1 66 a1 3e c7 26 0b bf b4 ba 09 bd
       0.08207106 0.3152366 -0.54356045 -0.03362532
000220 a1 5a 93 3e 9f 13 55 be 3f e6 e2 3e fa ec bb bd
       0.28780082 -0.20808266 0.4431629 -0.09176059
000230 ad 0d 62 3d 40 81 a6 3e ad 67 ad bd 6e e0 2b be
       0.055188823 0.32520485 -0.0846704 -0.16784832
000240 41 c5 9c be a0 26 02 be b6 79 8d bd 80 b9 35 3e
       -0.30619243 -0.12710047 -0.0690798 0.17746544
000250 8f 08 95 3e 04 26 74 be 67 b2 19 3f 6b 46 8b bc
       0.29108092 -0.23842627 0.60037845 -0.017001351
000260 99 58 d6 bd de 59 a4 3e 90 45 c4 3e 9b 4f 83 be
       -0.104661174 0.32099813 0.38334322 -0.25646672
000270 1a f0 18 3e 56 35 53 be 2a c5 e1 bd d0 d3 ae 3d
       0.14935341 -0.20625815 -0.11023934 0.08536494
000280 11 f1 26 3e 43 f6 2f 3d 82 10 06 3e bf 14 5b bd
       0.16302897 0.042959463 0.13092235 -0.053486582
000290 19 bc 55 3e 49 30 21 be 0d 1c 11 39 ec 98 aa bc
       0.20872535 -0.15741076 0.00013838727 -0.020824872
0002a0 a0 e5 77 3d 39 01 9d bd 6c f0 20 3e 5d fa 97 be
       0.06052172 -0.07666249 0.15716714 -0.296832
0002b0 62 81 6c 3d fb 1c 25 be 9f e5 0d 3c f6 c0 4b 3d
       0.057740577 -0.16124336 0.008660703 0.04974457
0002c0 62 4e f4 be 19 74 c2 bd cb a0 dc 3d 23 96 f3 3d
       -0.4771605 -0.094948 0.10772856 0.11893871
0002d0 ed 73 a6 be 0d df 84 bd 1e 42 2e 3d 74 df 29 bd
       -0.3251032 -0.06487856 0.042543523 -0.041472867
0002e0 fb bf a6 bd 64 f1 f6 bb 38 5b 6f 3e 10 6b 97 bc
       -0.08142086 -0.0075361 0.23374641 -0.018483669
0002f0 f1 48 ef 3d d9 90 02 bf 55 69 5e be 4a ab 9d 3d
       0.11683834 -0.5100227 -0.21719868 0.076986864
000300 01 8c b8 be 2b 39 25 be 2e 5e 6d bd d0 5e 75 3e
       -0.36044315 -0.16135089 -0.057951145 0.2396195
000310 df 87 b7 3e bc d1 7e 3e 01 79 49 3f e2 24 41 3e
       0.3584585 0.24884695 0.7870026 0.18861726
000320 49 54 4d 3c 42 56 88 3e aa 79 9c 3c c4 4b 36 3e
       0.012532302 0.2662831 0.019100983 0.1780234
000330 7c b3 c6 3d f4 cf 61 3e 6f 4e 46 3b 6a c0 a0 bd
       0.09702203 0.22051984 0.0030259152 -0.078492
000340 de 52 cf 3e c0 1e da 3d ef db f6 bd 4e ce 01 3f
       0.4049291 0.10650396 -0.12053668 0.5070542
000350 4b 71 a7 be ba 24 f5 bc e1 ed c7 be ce e6 56 3f
       -0.32703623 -0.02992474 -0.39048675 0.8394593
000360 02 de f0 3e 1b ea 4e 3e 72 75 b5 3e c7 19 f3 3c
       0.4704438 0.20206492 0.35441166 0.029675378
000370 4d 05 15 be 92 73 9d 3e 07 e0 36 3e c5 d1 65 3e
       -0.14552803 0.30752236 0.17858897 0.22443302
000380 8b c3 8f be c4 ed df 3e 17 99 0e bf 0d 12 30 3c
       -0.28078875 0.43736088 -0.55702347 0.010746491
000390 17 bb e9 be 1e 0d ea 3e 33 ad 58 3e 83 8d 48 3e
       -0.4565055 0.45713133 0.2115982 0.19585232
0003a0 f9 05 c8 be 35 aa 87 bd 27 5b 04 3e 92 0a f6 3e
       -0.39067057 -0.06624261 0.12925397 0.4805494
0003b0 eb d5 0f 3e 3b 9d 2d be 76 e3 ab 3e 37 30 e9 3d
       0.14046447 -0.1695451 0.33571976 0.113861494
0003c0 82 59 86 3d 53 dc e1 3e 3c 88 f6 be 18 87 e9 be
       0.06560041 0.44113407 -0.48150814 -0.4561088
0003d0 e3 bc d2 3e b2 1a 97 3d cd f5 d8 3c 25 23 81 3c
       0.41159734 0.073781386 0.026484394 0.015763829
0003e0 18 ae 0e 3f 7c b2 5e be 6a e2 25 bf 55 76 7b be
       0.55734396 -0.21747774 -0.64798605 -0.24556859
0003f0 23 e7 09 3e bc 0a a8 3e d1 cd 62 3f 73 61 e9 be
       0.13467078 0.3282069 0.885953 -0.4558216

context_transformer_0/kq_shared_bottleneck/norm/mul;context_transformer_0/kq_shared_bottleneck/norm/add;context_transformer_0/attention/key/einsum/Einsum;context_transformer_0/attention/key/add;context_transformer_0/attention/value/einsum/Einsum;context_transformer_0/attention/key/add/ReadVariableOp/resource f4 [32]
000000 84 0d 6a bd 80 05 c6 3d 64 82 91 bd 54 1b a1 3d
       -0.057141796 0.09669018 -0.07104948 0.078665406
000010 8e 3a 89 3d 1d 7e 47 3e 6c 68 de bd f5 64 c2 bd
       0.067006215 0.19481702 -0.10859761 -0.09491912
000020 68 53 6e bd 29 0b 0f be 20 0a 34 be 4c 7e c3 3d
       -0.05818501 -0.13969101 -0.17581987 0.095455736
000030 09 66 71 3d b1 36 32 3e e2 a0 9f 3d bc 27 37 3e
       0.0589352 0.17403676 0.07794358 0.17886251
000040 14 56 d5 bd 71 96 2e 3e 78 a8 09 be 08 5c 12 3e
       -0.10416809 0.17049576 -0.13443172 0.1429292
000050 6b b6 2a be c9 a1 b3 3d d1 16 fd bd 4d f8 b1 bd
       -0.1667115 0.087710924 -0.123578675 -0.08689938
000060 51 87 9e bd a1 b3 e3 3c bf 75 c1 b9 e9 8f 47 3d
       -0.07740653 0.027795615 -0.00036899556 0.048721228
000070 b0 26 e7 3b 32 6f 75 bd b7 f9 a0 bc cb 69 18 3d
       0.0070541725 -0.059920497 -0.019650323 0.037210267

context_transformer_0/kq_shared_bottleneck/norm/mul;context_transformer_0/kq_shared_bottleneck/norm/add;context_transformer_0/attention/key/einsum/Einsum;context_transformer_0/attention/key/add;context_transformer_0/attention/value/einsum/Einsum;context_transformer_0/attention/key/add/ReadVariableOp/resource1 f4 [32, 32]
000000 17 7a 83 3d 0d d0 96 bd 22 88 22 be 91 bd d5 bd
       0.06419771 -0.07363901 -0.15872243 -0.104365475
000010 39 92 f6 3d 12 2b 8c 3d 0a cd ea 3d a2 58 d8 bd
       0.120396085 0.068441525 0.11464889 -0.1056378
000020 4e a0 90 3d f0 24 31 3d 34 20 b0 3d 49 72 81 3e
       0.07061826 0.043248117 0.08599892 0.25282505
000030 c6 fd b6 3d c6 38 1e bd 3b 5f 55 3e a1 2f 04 3e
       0.08935122 -0.038628362 0.20837109 0.12908794
000040 63 8d 8c 3d 0c ad 13 be d1 6f 28 be 85 ea 4f be
       0.06862905 -0.14421481 -0.16448905 -0.20304306
000050 1f d3 18 3d 78 f9 ec bd b0 af 02 be 3d 88 4f 3c
       0.037310716 -0.1157102 -0.12762332 0.012666759
000060 b7 dd 66 bd f3 b7 40 3e ee 93 32 be a7 c0 14 3e
       -0.056363788 0.18820171 -0.17439243 0.14526616
000070 6e 92 9a 3d e2 68 9a bd 9c 8e ff bd 8c 3b c2 3d
       0.075474605 -0.07539536 -0.124783725 0.09484014
000080 0d 15 f4 bd 56 17 cf 3d a4 44 87 3e a0 73 25 3e
       -0.119180776 0.10111873 0.26419556 0.16157389
000090 58 e2 58 be 80 bc e2 bd 71 54 12 be 4b f0 42 3e
       -0.21180093 -0.1107111 -0.14290024 0.19036977
0000a0 b5 6f 0c be b9 8a 92 bd 1d af 32 be e6 04 8f be
       -0.13714488 -0.071553655 -0.17449613 -0.27933425
0000b0 e4 a1 ef bd dc 8f bb 3c 71 cc 78 be 5b df 5d be
       -0.117008 0.022895746 -0.24296738 -0.21667235
0000c0 b3 a9 1a be 1e d8 29 3e c0 bc 5f 3e e7 ec 68 3e
       -0.15103798 0.16586348 0.21849346 0.22746621
0000d0 c8 0b ae bd 08 98 2c 3e 7c 2f 54 3e eb e8 4a bd
       -0.08498341 0.1685487 0.20721239 -0.049538534
0000e0 c2 dd d3 3d f0 47 82 be 81 d3 63 3e 8b 77 21 be
       0.10345031 -0.2544551 0.22248651 -0.15768258
0000f0 df 2d 11 be da b3 00 3e 7a 23 2c 3e be 99 29 be
       -0.14177655 0.12568608 0.16810408 -0.16562554
000100 19 b2 d2 3d 97 1b 57 bd e9 ea 66 be 1e 95 f0 bd
       0.10287876 -0.052516546 -0.22550549 -0.11747192
000110 e4 7d 0f 3e c2 8c a1 3d 91 d3 06 3e 71 f2 01 be
       0.14012867 0.078881755 0.13166644 -0.1269014
000120 60 3f aa 3d 5c d6 7d 3d 27 d9 03 3e aa f1 85 3e
       0.08312869 0.061972007 0.12875806 0.26160938
000130 fb eb f5 3d 59 24 e9 bc a7 dd 53 3e 4b 0d 27 3e
       0.120079 -0.028459715 0.20690022 0.16313665
000140 37 94 fd 3d 82 dc 05 be 28 9c 4b be 20 8a 46 be
       0.12381785 -0.13072398 -0.19883788 -0.19388628
000150 da d6 79 3d 9d 24 08 be ac fb 0e be c8 a4 43 3d
       0.060995914 -0.13295217 -0.13963193 0.04776457
000160 17 53 a2 bd f0 01 54 3e b4 76 43 be 5d 6b 1b 3e
       -0.079260044 0.20703864 -0.1908825 0.15177675
000170 7b 43 a2 3d 15 97 c3 bd f8 9a 0d be 22 19 e3 3d
       0.07923027 -0.09550301 -0.13828647 0.11088778
000180 8a 53 d1 bd 25 93 76 3d da 01 51 3e ac 2d 0a 3e
       -0.10221012 0.06019892 0.20410863 0.13493985
000190 ef 6b 2c be 30 bd a6 bd ab e5 f8 bd e8 c7 20 3e
       -0.16838048 -0.081415534 -0.12153181 0.15701258
0001a0 26 38 b4 bd eb 60 84 bd ad e4 28 be 6a da 84 be
       -0.08799772 -0.06463798 -0.16493483 -0.25947887
0001b0 7f 05 db bd 86 9d 1d 3c 6a a9 4e be f8 72 45 be
       -0.10694408 0.009620076 -0.20181814 -0.19282138
0001c0 ed 02 d5 bd 64 86 2c 3e 11 58 42 3e ff 15 43 3e
       -0.10400949 0.16848141 0.18978907 0.1905136
0001d0 52 6c 9a bd ef 21 30 3e 6a 31 20 3e ef ed 50 bd
       -0.07540192 0.17200445 0.1564385 -0.05100816
0001e0 80 7f 8a 3d 3f f6 79 be 7f e8 4f 3e 9d 1e 1d be
       0.067626 -0.24410342 0.20303534 -0.1534371
0001f0 80 73 c6 bd 79 ef be 3d a6 65 15 3e 75 44 16 be
       -0.096899986 0.093230195 0.14589557 -0.14674552
000200 da bf cf bd 2c 48 a2 3d e0 27 38 3e 87 24 04 3e
       -0.10144015 0.07923922 0.17983961 0.12904559
000210 b5 21 0b be a1 17 9a bd 22 b0 ca bd 2c 26 08 3e
       -0.13587077 -0.07524038 -0.09896876 0.13295811
000220 c1 0c a3 bd eb 62 7e bd 6a 53 f3 bd 26 9d 85 be
       -0.07961417 -0.062106054 -0.11881144 -0.26096457
000230 3e 85 c1 bd 9a 02 d1 3b 92 b1 53 be 36 f4 1d be
       -0.09449242 0.006378484 -0.20673206 -0.1542519
000240 a8 f2 b0 bd 58 c8 09 3e f0 16 3a 3e 4c ab 50 3e
       -0.08640033 0.13455331 0.18172812 0.20377845
000250 df 10 78 bd ee ff 0b 3e ae e8 18 3e 2b 6d e0 bc
       -0.060562965 0.13671848 0.1493251 -0.027395805
000260 c1 b0 99 3d 07 b1 46 be dc ac 4b 3e 93 9d 0f be
       0.07504416 -0.19403468 0.1989016 -0.14024954
000270 54 62 b7 bd 7a b0 a2 3d e3 a1 04 3e 1d f3 e8 bd
       -0.089543015 0.079438165 0.1295238 -0.11374495
000280 4b 61 90 be 6f 62 e0 be ad f8 43 3c af 4b bf 3d
       -0.2819923 -0.438251 0.011961144 0.093406074
000290 a7 68 05 be cd 62 de 3d bd b0 f2 3c 2b 54 a2 bd
       -0.13028203 0.108586885 0.029625291 -0.0792621
0002a0 e5 13 1b be 2d 1c 56 be 28 e8 5e be 9e 25 56 3f
       -0.15144308 -0.20909186 -0.21768248 0.8365115
0002b0 0c c2 15 3d 75 63 d0 bd 21 ad b7 3d 97 75 82 3d
       0.03656201 -0.1017522 0.089685686 0.06370085
0002c0 43 64 f4 bd 0e 4e 95 be 9d 76 5e bc 88 ae 91 be
       -0.11933186 -0.29161114 -0.013578084 -0.2845347
0002d0 06 68 9b bd e9 31 b7 3d 36 81 ee bd 0b 24 2b be
       -0.075882 0.089450665 -0.11645739 -0.16712968
0002e0 86 1c 43 3e 5b 5a 5f 3b 00 5c df 3d 30 f0 f5 3c
       0.1905385 0.0034080956 0.109062195 0.030021757
0002f0 91 cc ae be 0e c0 ac 3c 18 04 47 be 77 50 a3 bd
       -0.34140447 0.021087673 -0.19435155 -0.07974332
000300 b7 07 06 3e b2 6f e0 bd 20 9d 70 be 2e 7b 3c be
       0.1308888 -0.10958804 -0.23497438 -0.18406364
000310 58 6d 55 3e ca 23 e9 3d 4e c0 27 3e ff 34 17 be
       0.20842493 0.11383779 0.16381952 -0.1476631
000320 e4 e1 04 3e 24 fc dd 3d 67 e3 47 3e a6 ad 78 3e
       0.12976795 0.10839108 0.19520341 0.24284992
000330 c6 7c 10 3e 83 a5 25 bc a1 81 72 3e 9a 81 3c 3e
       0.14110097 -0.010110262 0.23682262 0.18408814
000340 4e 53 10 3e 08 ec 36 be 21 8f 65 be 5b 35 63 be
       0.14094278 -0.17863476 -0.2241788 -0.22188322
000350 65 58 d0 3d 47 19 2b be a6 f1 45 be 90 a3 91 3d
       0.1017311 -0.16708861 -0.19330463 0.07111275
000360 42 a5 d4 bd 77 6d 84 3e d4 32 5f be e7 95 32 3e
       -0.10383083 0.25864765 -0.21796733 0.17439996
000370 49 3d 1a 3e 2c 21 d3 bd 41 17 28 be b6 a4 2b 3e
       0.15062441 -0.103090614 -0.1641512 0.16762051
000380 7e 8a 8d 3e 6b d7 1f 3e ef a9 17 bd 5d 87 85 bd
       0.27644724 0.15609519 -0.037027296 -0.06519959
000390 6e 24 07 3e 14 81 6f bc 4a 27 2c bb 32 72 d2 3d
       0.1319749 -0.014618177 -0.0026268535 0.10275687
0003a0 f7 4d ba 3d e6 9c 2d 3e 92 b4 22 3e 3d 4a e9 be
       0.09096902 0.16954383 0.15889195 -0.45564452
0003b0 43 f2 06 3d 7b b9 00 3e 49 01 9b 3d ad 8f 34 bd
       0.032945883 0.12570755 0.075686045 -0.044082332
0003c0 db 6b 20 3e b3 ff 43 3e f8 09 88 bd ff 39 75 3e
       0.15666144 0.1914051 -0.066425264 0.23947905
0003d0 6c f9 ce 3d db 73 c1 bd dc 8e d1 3d 6a 6c ba bc
       0.10106167 -0.09445926 0.102323264 -0.022756774
0003e0 62 d2 4c be e6 d9 7c 3d a4 79 82 bd a4 dc a3 bd
       -0.2000213 0.06173124 -0.06370857 -0.08001068
0003f0 78 82 6f 3e 90 8a c0 bc 85 61 15 3e 1f 40 df 3d
       0.23389614 -0.023503572 0.14587982 0.10900902

context_transformer_0/kq_shared_bottleneck/norm/mul;context_transformer_0/kq_shared_bottleneck/norm/add;context_transformer_0/attention/query/einsum/Einsum;context_transformer_0/attention/query/add;context_transformer_0/attention/value/einsum/Einsum;context_transformer_0/attention/query/add/ReadVariableOp/resource;context_transformer_0/attention/Mul;context_transformer_0/attention/Mul/y f4 [32]
000000 27 b2 cf bd 13 74 00 3e 1e 5c d5 bd 9f 0b e1 3d
       -0.10141402 0.12544279 -0.104179606 0.10988545
000010 66 a3 d3 3d 81 d6 93 be c9 34 ed bd 30 e7 d6 3d
       0.103339 -0.2887459 -0.115823336 0.10493314
000020 61 a7 85 be 07 13 ac bd 32 99 ba bd e5 6e eb 3d
       -0.26104262 -0.08402067 -0.09111251 0.11495761
000030 cf 8a ff 3d 70 4f c2 3d 34 cf 91 3e 88 79 b0 3d
       0.124776475 0.09487808 0.28478396 0.0861693
000040 84 1b b0 3a 31 8f 08 bd 65 dc 82 3c 47 b5 d4 bc
       0.0013435935 -0.033339683 0.015974233 -0.025965346
000050 8c 21 83 3e 78 02 15 be 7a 3f 97 3c 97 ca e5 bb
       0.25611532 -0.14551723 0.018462885 -0.007012676
000060 3e 80 92 3e ca 0f 0d 3e f0 f8 01 3d 5e eb 03 3e
       0.28613466 0.13775554 0.031731546 0.12882754
000070 1c e1 d2 bd 97 28 ef bd 20 35 9f 3d 62 d9 f4 3d
       -0.102968425 -0.11677664 0.07773805 0.11955525

context_transformer_0/kq_shared_bottleneck/norm/mul;context_transformer_0/kq_shared_bottleneck/norm/add;context_transformer_0/attention/query/einsum/Einsum;context_transformer_0/attention/query/add;context_transformer_0/attention/value/einsum/Einsum;context_transformer_0/attention/query/add/ReadVariableOp/resource;context_transformer_0/attention/Mul;context_transformer_0/attention/Mul/y1 f4 [32, 32]
000000 77 43 96 bd b1 52 d3 bb fb c6 28 3d 3f c3 0c bb
       -0.07337087 -0.0064490666 0.041205388 -0.002147868
000010 00 8a 33 3c 68 12 68 3d 5e 80 08 bd 57 a2 00 bc
       0.010958195 0.05665818 -0.033325545 -0.007851205
000020 63 e6 cc bc 96 4a 41 3c 46 28 de 3c b9 3a 7c bc
       -0.0250122 0.011797568 0.027118813 -0.01539486
000030 2c ec ff bc 74 af f2 bc 91 6c 1b 3c fd a0 a8 bd
       -0.031240545 -0.029624678 0.0094863335 -0.08233831
000040 12 91 5d 3c c1 02 b7 bc 04 7b b3 bc b4 cc 8c 3c
       0.013523357 -0.02234018 -0.021909244 0.017187454
000050 6c c7 19 bd f9 07 3d 3d 7c b4 4c 3b d5 e6 b2 3d
       -0.0375437 0.04615018 0.0031235507 0.08735434
000060 df 82 e7 3b de ec ea bc 08 c6 ca 3d 64 53 95 bb
       0.0070651616 -0.0286774 0.09901053 -0.00455706
000070 87 6b bb bb 27 d7 65 bc 0f cd 80 3b 3a 26 86 3c
       -0.0057196054 -0.014028347 0.003930695 0.01637565
000080 86 16 d8 3d 50 02 81 3c 53 81 75 bd 39 25 90 39
       0.10551171 0.015748173 -0.059937786 0.00027493553
000090 c7 37 ca bb 59 a0 78 bd 0a 35 61 3d 0b a3 25 bc
       -0.0061712 -0.060699794 0.054982223 -0.010109673
0000a0 37 02 20 3d 0e ec 1d 3c 98 a4 f8 bb 47 8e 8d 3c
       0.039064612 0.009638799 -0.0075879805 0.017279757
0000b0 d3 91 45 3d c2 67 6f 3d 66 d9 8d bc e8 b9 d9 3d
       0.048234772 0.05844856 -0.017315578 0.10631162
0000c0 50 25 5d bc 77 44 c7 3c 2c 6b 77 3c 4f 2d 19 bc
       -0.0134976655 0.024324639 0.015101235 -0.009349181
0000d0 8a 0b 56 3d 6a 98 83 bd 77 1f 94 bc eb fb f9 bd
       0.0522571 -0.06425555 -0.01808141 -0.12206253
0000e0 91 30 09 bb 99 dc 0c 3d bc 08 00 be 4a bd 7b bb
       -0.002093349 0.034390066 -0.12503332 -0.0038412386
0000f0 e6 02 93 b8 aa 79 28 3b f0 69 e4 bb 67 92 02 bc
       -7.010046e-05 0.0025707283 -0.0069706365 -0.007969475
000100 3e aa 93 bd 95 cc d8 bc 23 e0 5b 3d 21 98 b9 bb
       -0.072102055 -0.02646474 0.05368055 -0.005663887
000110 ea 05 16 3b d8 c3 5d 3d 08 c6 4f bd 3a a3 6c 3b
       0.0022891709 0.05414185 -0.050725967 0.0036108033
000120 fb a4 00 bd 83 4a 8e 3c 58 58 89 3c 1b 31 f2 ba
       -0.031407338 0.017369514 0.016765758 -0.0018477769
000130 1c 29 07 bd a4 af 16 bd b0 32 79 3c 37 5b cb bd
       -0.03299819 -0.036788598 0.015209839 -0.09929507
000140 b7 da b4 3c 9b 05 37 bc ed 03 ac bc 91 e9 2f 3c
       0.022076948 -0.01117077 -0.020997966 0.010736839
000150 6e 52 28 bd cc f1 7a 3d ec a7 82 3c b0 d7 b2 3d
       -0.041094236 0.06126575 0.015949212 0.087325454
000160 00 ac 85 3b df 21 06 bd be e6 ef 3d d4 4d 7a bb
       0.004079342 -0.032747146 0.117139325 -0.0038193362
000170 e7 a7 e9 bb 34 ce 3c bc ec 2f 21 3b ef 77 a5 3c
       -0.007130611 -0.011523772 0.0024595214 0.02019879
000180 62 8a ba 3d 18 42 c5 3c 84 e5 78 bd f5 c0 dd 39
       0.09108426 0.024079368 -0.06076576 0.0004229617
000190 2f 1b 21 3b 88 45 85 bd 26 3f 1a 3d 95 e2 c7 3b
       0.0024582853 -0.06507403 0.03765788 0.0061000087
0001a0 16 6a 00 3d 85 10 88 39 64 cd 87 bc db 9b ef 3b
       0.03135117 0.0002595225 -0.01657743 0.0073122806
0001b0 4e ef 0f 3d 7c 39 48 3d 8e ae da bc 8f 6c a6 3d
       0.035140328 0.048882946 -0.026694562 0.08126175
0001c0 8d ca 6e bc 6a 6c d5 3c 8e ea 79 3c bc c5 4d bc
       -0.014574659 0.026052672 0.015253676 -0.012559351
0001d0 df 06 15 3d 7d c2 55 bd f6 85 98 bc 60 33 d9 bd
       0.036383506 -0.05218743 -0.018618565 -0.10605502
0001e0 44 50 b3 bb 6e 5a eb 3c f0 88 00 be ea 82 51 bb
       -0.005472215 0.028729644 -0.12552238 -0.00319689
0001f0 d5 16 6e 3c ad 0a e0 3b 8f 7f 79 3b 47 32 33 bc
       0.014531811 0.00683721 0.0038070416 -0.01093728
000200 2a 53 ae 3d fa b7 aa 3c 1e d9 58 bd c4 3f 8f 3b
       0.08511956 0.02083968 -0.052941434 0.004371615
000210 51 48 66 39 6b fc 52 bd 9f af 29 3d 9b 33 00 3c
       0.00021961449 -0.051510256 0.04142725 0.007824804
000220 5a 52 f3 3c 27 0a 33 bb d0 f3 ee bc 98 7b 90 3b
       0.029702354 -0.0027319284 -0.029168993 0.004409265
000230 bf 95 c6 3c 43 42 1a 3d 24 02 46 bc 12 d2 99 3d
       0.024241326 0.03766085 -0.012085471 0.07510771
000240 5c cc 98 bc a3 f6 a6 3c 16 7e fb 3c 05 3e 60 bc
       -0.018652134 0.020381277 0.03069977 -0.013686662
000250 67 28 3e 3d 36 99 66 bd 34 df 40 bc 50 b0 aa bd
       0.04642525 -0.056298457 -0.011771966 -0.0833441
000260 2b 6d 5f bb c3 b0 d0 3c 6c 51 e3 bd 6e 03 01 bc
       -0.0034092169 0.025474912 -0.11099514 -0.007874353
000270 20 15 92 3c 97 0b cf 3b 6f d3 55 3a 93 31 a6 bc
       0.017832339 0.0063185203 0.0008156811 -0.02028731
000280 bc 89 c6 3c 67 ca bd 3e 92 93 46 3d c9 18 a0 bd
       0.024235599 0.37068483 0.048480578 -0.078172274
000290 66 11 6f 3d 68 46 bc 3d 60 e6 f2 bc e4 4c da bd
       0.0583662 0.091931164 -0.029650867 -0.10659197
0002a0 56 fa da 3d d2 73 71 3d 73 75 c3 3d 48 5b 6e be
       0.10692279 0.058948345 0.09543886 -0.23277009
0002b0 87 8b 50 bc f7 b7 2d 3e 7e 79 f8 3c a4 52 8d bc
       -0.012728578 0.16964708 0.03033137 -0.01725132
0002c0 86 53 9f 3d fc 6d 71 bd 19 74 75 bd 6d fc 11 bd
       0.07779603 -0.05894278 -0.059925172 -0.035641123
0002d0 19 f0 65 bb eb e4 a9 3c 59 1b c2 bd cf 28 94 bd
       -0.0035085736 0.02073904 -0.094778724 -0.07234346
0002e0 2e 2e 2c bd 77 11 41 bd 8a 49 5b bd 86 9b 63 3d
       -0.042036228 -0.047135796 -0.05353693 0.05556824
0002f0 6e 7f da 3d 84 a7 d2 bc 26 7d a6 3c 48 9f f5 3b
       0.106688365 -0.025714643 0.020323347 0.0074957944
000300 75 9a c2 bd 51 4a 34 bd 00 a3 97 3d c0 13 3a 3b
       -0.095021166 -0.044016186 0.07404137 0.002839312
000310 b3 00 02 3c bc f0 74 3d 54 f6 48 bd db b7 0b 3a
       0.007934737 0.059799895 -0.04906304 0.0005329826
000320 90 5e 3d bd f6 b8 48 3b f0 f9 52 3c f4 3e 22 3b
       -0.04623276 0.0030627823 0.012876973 0.0024756761
000330 a4 15 34 bd df 3d 64 bd 88 94 40 3b 8d 99 cf bd
       -0.04396595 -0.055723067 0.0029385407 -0.10136709
000340 f1 8c b3 3c 5d 41 86 bc 88 d4 5e bc 4c 1a 86 3a
       0.021917792 -0.01638859 -0.013600476 0.0010231226
000350 22 92 39 bd 74 db 7b 3d 86 a5 71 3c d9 3a f9 3d
       -0.04530538 0.061488584 0.0147489365 0.121694274
000360 56 17 da 39 24 1d 10 bd ff 43 0a 3e 23 80 b2 3b
       0.00041597587 -0.03518404 0.13502501 0.005447404
000370 3c c7 ae bc 9e d6 05 bc f8 5a 25 bb 08 df a3 3b
       -0.021335237 -0.0081688445 -0.0025231224 0.0050009526
000380 bf 65 34 bd 4f 10 6d be 05 1c af bc e0 6a b6 3c
       -0.044042345 -0.23150752 -0.021375665 0.022267759
000390 ee 3e a3 bc 4a 2f 9c bc 1f 0b 94 3b 1c e6 1e 3d
       -0.019927468 -0.019065518 0.0045179273 0.03879367
0003a0 1d d6 89 bd 28 ae 11 bc 2f 47 e8 bc de 6a ee 3d
       -0.06730292 -0.00889162 -0.028354255 0.11641477
0003b0 c6 70 ad 3c f3 86 f8 bd 2d 37 1f 3d b3 32 97 bb
       0.021171939 -0.121351145 0.03887098 -0.004614198
0003c0 2a 62 56 bc 27 9f a9 3a a7 27 24 bc d5 39 85 3c
       -0.013084928 0.0012941108 -0.0100192195 0.016262928
0003d0 65 a1 10 bc fb b8 63 bc 71 08 3c 3d 75 69 a8 3d
       -0.008827542 -0.013899083 0.045906488 0.08223239
0003e0 cb fd 6f 3b e1 d3 59 3d 85 af 89 3d 17 84 18 3c
       0.0036619778 0.05318058 0.06722931 0.009308836
0003f0 19 87 0f bd 04 84 7d bb 5d 88 96 bc 28 9a e0 3c
       -0.03504095 -0.0038683424 -0.01837557 0.027417257

context_transformer_0/ffn_layer_0/intermediate_dense/einsum/Einsum;context_transformer_0/ffn_layer_0/intermediate_dense/Relu;context_transformer_0/ffn_layer_0/intermediate_dense/add f4 [32]
000000 5f 3c c4 be 11 43 a4 be 8b c3 35 bf e0 d1 85 be
       -0.3832731 -0.32082418 -0.710015 -0.26136684
000010 a3 0d 41 be 2a fc d8 be 31 c4 54 be ef a2 86 be
       -0.18852858 -0.42379886 -0.20777966 -0.26296183
000020 ec 1e 9a be c2 ab 9f be c8 e2 66 be f5 92 48 be
       -0.30101717 -0.31185728 -0.22547448 -0.1958731
000030 03 86 bd be a6 70 36 bd 9e 9d c1 be 7f 9e 1c be
       -0.37016305 -0.044541024 -0.37815565 -0.15294836
000040 89 48 5f be 28 95 01 bd 4b 38 ce be 64 7a 38 be
       -0.21805014 -0.031636387 -0.40277323 -0.18015438
000050 30 72 de bd be e3 03 bf 49 83 5e be 13 2b f8 be
       -0.10861623 -0.5151938 -0.21729769 -0.48470363
000060 4b 80 4e be bb e1 a8 be 4f 83 3f be f0 fe f5 be
       -0.20166127 -0.3298472 -0.18702434 -0.48046064
000070 98 2b eb be 66 c8 aa be 02 db 61 3c e7 ba 49 be
       -0.45931697 -0.33356017 0.013785126 -0.19700204

context_transformer_0/attention/norm/mul;context_transformer_0/attention/norm/add;context_transformer_0/ffn_layer_0/intermediate_dense/einsum/Einsum;context_transformer_0/ffn_layer_0/intermediate_dense/Relu;context_transformer_0/ffn_layer_0/intermediate_dense/add f4 [32, 32]
000000 93 84 bc 3e ce 87 6c 3e db 4c 02 3e 56 dd af be
       0.36819896 0.2309868 0.1272463 -0.34348553
000010 48 9a df be d7 db 27 bd a8 c6 b6 3e 3f fd be 3e
       -0.43672395 -0.04098114 0.35698438 0.37302586
000020 a6 3f 3b 3b 32 bb 61 3e 71 fb 0d 3e 4e a7 62 be
       0.0028571873 0.22044066 0.13865449 -0.22134134
000030 f3 70 a8 3d 48 61 48 be 74 b3 4a 3e 66 ab ab 3d
       0.08224668 -0.1956836 0.19795018 0.08382301
000040 57 3a 12 3f 16 fd 49 bd 36 0a 80 3d 01 0b 86 3d
       0.5712027 -0.049313627 0.062519476 0.065450676
000050 52 c3 32 be a0 38 25 3d c0 ac 72 3e 28 a7 c3 bd
       -0.17457321 0.040337205 0.23698711 -0.09553367
000060 e5 1e 37 3e cc e7 66 be ff ac 9b 3d 35 bc 32 bd
       0.17882879 -0.22549361 0.07601356 -0.04363652
000070 49 ba 1c 3d ae 87 d7 bd b4 bf 8a 3d d7 3a c5 3b
       0.038263593 -0.10523926 0.06774846 0.006018977
000080 c2 19 ca bd 1f d2 53 be 77 df 33 3e 4b b0 cc bc
       -0.09868194 -0.20685624 0.17565714 -0.024986407
000090 6e e5 bc 3e ba 5b 7e bd 40 94 9e bd 07 b6 1c 3e
       0.3689379 -0.062099196 -0.0774312 0.15303813
0000a0 27 fc 0a 3e 02 46 85 3e ce db c6 3c 51 73 be bd
       0.13572751 0.26029974 0.024274733 -0.092993386
0000b0 fc 84 ae be f5 99 36 be a4 fc 8e 3e 42 4a 3b 3e
       -0.34085834 -0.17832167 0.27927125 0.18290046
0000c0 68 fd a1 3e f7 58 8b 3b 05 13 07 be 90 cf 80 be
       0.31638646 0.004252549 -0.13190849 -0.25158358
0000d0 68 83 10 be 9b 25 89 3e 42 c0 10 be 54 ff 1e 3e
       -0.14112628 0.26786503 -0.1413584 0.15527087
0000e0 4b 62 e8 3d 88 5c 38 be 25 a8 9d 3e 32 b5 c9 3e
       0.11346873 -0.18004048 0.30792347 0.39396054
0000f0 9a 22 8c be 78 9a 81 3e 34 2b 65 bd 48 7d 4b be
       -0.2737015 0.25313163 -0.055949405 -0.1987201
000100 ce 37 5a 3d cb 0e fb bc 59 23 1d 3e ce 14 85 be
       0.053275876 -0.030646702 0.15345515 -0.25992435
000110 da a3 9d 3e d3 67 22 bd a2 e7 90 be 34 9c 20 3d
       0.3078907 -0.039649796 -0.28301722 0.039211467
000120 82 ed d4 39 62 35 67 be 49 4e 3f 3e 9c 8b 1b bd
       0.00040612748 -0.22578958 0.18682207 -0.03797494
000130 95 df c5 be cb 7f 12 3e 6f 60 8a be 3a 3b 9c bd
       -0.38647142 0.14306562 -0.27026698 -0.07628484
000140 8b 4a e2 bd 60 0e 1c 3d fa 7d d9 bd 7b 5c 17 3e
       -0.11049374 0.038099647 -0.10619731 0.14781372
000150 01 f4 e7 bd ba 76 01 3e 0b cf 43 be 64 51 1b be
       -0.11325837 0.12642947 -0.1912195 -0.15167767
000160 6c 35 2f bc 28 c8 8e bd 31 4d c7 bc ee 58 85 bd
       -0.010693889 -0.069717705 -0.0243288 -0.065111026
000170 32 52 ae 3d a1 61 87 3e ed 9e 65 3c 24 0c 82 3d
       0.08511771 0.26441672 0.014014942 0.06349972
000180 f5 24 df bd 75 b8 3c be ff a5 85 be 70 83 eb bd
       -0.10895721 -0.1842974 -0.26103207 -0.11499679
000190 8f be 98 bd 3c a0 c0 3d c8 3a 9a bc b4 d7 03 be
       -0.07458221 0.09405562 -0.018826857 -0.12875253
0001a0 28 4f 62 3e ca 5b 0e be ee df f9 bb 48 b8 32 3d
       0.22100508 -0.13902202 -0.0076255715 0.043632776
0001b0 61 5e b1 bd 3e 1c 1b be 4e b5 c5 3d 02 26 7f bd
       -0.086605795 -0.15147492 0.09653722 -0.062292106
0001c0 c0 27 bc 3e 96 b1 49 be 82 47 d6 bd 4a 90 28 3e
       0.36749077 -0.1969665 -0.10462858 0.16461292
0001d0 34 97 3c be 4c 27 c1 bb c3 93 8b bd c5 13 14 3e
       -0.18417054 -0.005894577 -0.06815293 0.14460666
0001e0 bc 32 2c 3e a0 1e 1b bf 5a 69 d5 bd 0b 22 ef 3b
       0.16816229 -0.60593605 -0.10420485 0.0072977594
0001f0 6b b4 52 be c6 b7 22 be 45 37 a2 3e fa 01 0d 3e
       -0.20576636 -0.15890417 0.31682792 0.13770285
000200 7c 68 88 bd a9 52 9e 3e bd 73 02 3d 8e 47 20 bd
       -0.06660554 0.3092244 0.031848658 -0.03913074
000210 27 eb 81 be 37 15 95 be 90 12 94 3d 58 0e a0 3d
       -0.2537472 -0.29117748 0.07230103 0.07815236
000220 74 b2 de bc 18 f6 3c be 68 e3 55 3d 71 3a b5 bd
       -0.027184702 -0.18453252 0.052218825 -0.088490374
000230 a0 13 97 be 3c 7c c1 be 05 16 01 3d 6d 67 ec 3d
       -0.2950716 -0.37790096 0.03151514 0.115431644
000240 e4 8a b5 bc 83 29 a8 bd a8 55 12 bd b3 3c c7 3d
       -0.022160955 -0.08211043 -0.03572622 0.09728374
000250 61 c4 8a be 45 bb 36 3e 58 8b 8e 3d f3 ab 80 3d
       -0.2710295 0.17844875 0.069601715 0.06282797
000260 8a 98 ba 3c 3d 0f 05 3e 59 48 d4 be 5e 40 ac 3e
       0.022777814 0.12994094 -0.41461447 0.33642858
000270 33 a0 2f be 11 8c 36 3e f1 ec 83 3d 6f 72 ce 3c
       -0.17150955 0.17826869 0.06441677 0.02520105
000280 88 74 b5 3d ce 1a 8b 3d be 41 a0 3d 57 35 92 be
       0.08860117 0.06792222 0.07825039 -0.2855632
000290 c6 fc 11 3d 82 89 37 be fe 07 38 bd fc 46 33 3e
       0.035641454 -0.17923549 -0.044929497 0.17507547
0002a0 c7 6b d4 3d 8b 79 a5 3d d0 33 34 3e 29 e9 3f be
       0.103721194 0.08079823 0.1759789 -0.18741287
0002b0 51 8c 1f 3e 2e 63 8b 3c 52 a0 1c be b1 5c 8e be
       0.1558087 0.017015066 -0.15295532 -0.27805093
0002c0 83 3c fd 3e b8 ab 4b 3c 51 21 9b bd 81 f0 0d 3d
       0.4946023 0.012431078 -0.07574714 0.03465319
0002d0 1f 81 da be ee 24 ff 3b b0 91 f7 bd 7b 7f 2d be
       -0.42676637 0.007786385 -0.120883346 -0.16943161
0002e0 2f c4 40 3e 25 b2 13 3d 1a 7a 82 be 46 5f d1 3d
       0.18824838 0.036058564 -0.2548378 0.1022325
0002f0 9f 8a 16 3e 20 45 ac bd 4b b4 55 3e 59 85 e7 bd
       0.14701317 -0.08411622 0.20869558 -0.11304731
000300 37 7e 54 3c 30 cc b5 3c 61 a9 60 3e a8 79 de bd
       0.012969545 0.02219209 0.21939613 -0.10863048
000310 48 e4 c3 bd dc 77 35 be 50 65 ef 3d d1 22 0a 3d
       -0.095650256 -0.17721504 0.11689246 0.03372461
000320 16 68 99 3d bf f9 11 3c 4c 28 1f bd 4c 96 8f be
       0.07490556 0.008909642 -0.03885679 -0.28044355
000330 95 8f 74 3e 91 ac 66 be 88 7b 31 bd 64 67 96 bd
       0.23882897 -0.22526766 -0.0433307 -0.07343939
000340 ea 85 11 3e f5 03 ee bd 89 7d 99 3c cf 1d 8a be
       0.1421124 -0.116218485 0.018736618 -0.26975867
000350 c4 97 9c be 6f dc 85 3e b7 11 66 be 35 2e c0 bc
       -0.30584538 0.2614474 -0.22467695 -0.023459533
000360 b9 49 4b 3e 2a bc fc bd a1 97 52 3b 7b cf 0d be
       0.19852342 -0.12340577 0.0032133835 -0.13848679
000370 2a c6 a7 3e a4 a0 87 bd 9e 30 23 3e 6f 07 93 be
       0.32768375 -0.06622437 0.15936515 -0.2871661
000380 15 7f 16 bc 59 69 ae 3d 0b d8 00 3e 8e 95 e3 bd
       -0.009185572 0.08516187 0.12582414 -0.1111251
000390 89 ec 91 be 1f a6 5d be 8c c4 53 3d f8 1f eb 3d
       -0.28500775 -0.21645401 0.051701114 0.11480707
0003a0 3f 7a 43 3e 65 ff 42 3c ab 62 a3 3c b2 79 aa be
       0.19089602 0.011901711 0.01994451 -0.3329597
0003b0 f9 a7 45 3e ac 25 70 be 4f b7 ff ba 5f c3 42 3d
       0.19302358 -0.2345187 -0.0019509586 0.0475496
0003c0 25 d3 25 3d 5a ff df bd 88 b8 55 3d 9f 53 32 be
       0.040484566 -0.10937376 0.052177936 -0.17414711
0003d0 bc f5 86 be f3 73 8f 3e fb 67 51 be 32 be fe 3c
       -0.26359355 0.2801815 -0.20449822 0.031096552
0003e0 79 12 4c 3e 96 29 4c bd 8a 97 4e 3d cc a2 51 be
       0.19928922 -0.049844347 0.050437488 -0.20472258
0003f0 d0 db 8e 3e df d1 ed 3d 00 9b 5d bb 71 d3 69 be
       0.2790208 0.11612295 -0.003381431 -0.22834565

context_transformer_0/ffn_layer_1/intermediate_dense/einsum/Einsum;context_transformer_0/ffn_layer_1/intermediate_dense/Relu;context_transformer_0/ffn_layer_1/intermediate_dense/add f4 [32]
000000 15 91 fe bd 54 1d 79 be 12 c2 4f be 8e cd df bd
       -0.12430016 -0.24327594 -0.20288876 -0.10927878
000010 05 4c 2d be 4e a0 fd bd ce ae c0 bd 01 d8 e2 bd
       -0.1692353 -0.12384091 -0.09408341 -0.11076356
000020 cb 28 ab be d3 7a 5b be 9a a3 0e be c9 78 a3 bc
       -0.3342956 -0.21433572 -0.13929597 -0.019955056
000030 50 91 d0 3d 79 75 9c be 58 42 20 be e6 0e 30 3d
       0.10183966 -0.30558375 -0.15650308 0.04298296
000040 c9 9e 89 bd 25 be 43 be 11 c9 ce be c1 e5 21 be
       -0.06719739 -0.19115503 -0.40387776 -0.158103
000050 b8 66 56 be f1 a8 04 be e3 9d be bd 2e 9b 3d be
       -0.20937622 -0.12955071 -0.09307458 -0.18516228
000060 37 bb 33 be 26 4b 63 be a5 4e a8 be 20 14 f2 bd
       -0.17551886 -0.22196636 -0.328725 -0.11820245
000070 34 78 a3 bc fc 56 fb 3b 3b 33 70 be 97 e6 bc be
       -0.019954778 0.0076702815 -0.23457043 -0.36894676

context_transformer_0/ffn_layer_0/norm/mul;context_transformer_0/ffn_layer_0/norm/add;context_transformer_0/ffn_layer_1/intermediate_dense/einsum/Einsum;context_transformer_0/ffn_layer_1/intermediate_dense/Relu;context_transformer_0/ffn_layer_1/intermediate_dense/add f4 [32, 32]
000000 38 c9 c6 3d 26 a5 b1 bb 75 41 0e 3d 16 8f 57 bd
       0.09706348 -0.0054212986 0.034730393 -0.05262669
000010 3b 32 0d bd 22 93 9c bc 0f 53 32 3d 17 8b 6d 3c
       -0.03447173 -0.019113127 0.043536242 0.014498494
000020 23 a4 f9 bc 92 f8 6e 3c 16 3c 5c 3d cd a0 ff 3a
       -0.030473774 0.014585631 0.05376824 0.0019502878
000030 a0 93 76 3d 49 55 8e 3c 56 d7 d5 3b 75 c4 28 bd
       0.06019938 0.017374652 0.006525914 -0.04120298
000040 2f 04 04 3e 5c 3a 0e ba 7f 2f c2 bd 64 42 12 3e
       0.12892221 -0.00054255663 -0.094817154 0.14283139
000050 2b 34 1d bd 21 54 60 bd b8 cb 81 bd dc 1a 6d bd
       -0.03837983 -0.05476773 -0.063376844 -0.057886943
000060 d1 a0 87 3d 38 97 f7 3d 42 fe ce bc 39 90 74 3d
       0.0662247 0.120893896 -0.025267724 0.059707854
000070 66 98 05 3d 5a 80 3d bd 87 26 b6 3d f6 15 cc bc
       0.03261604 -0.046264984 0.08894067 -0.024912816
000080 d9 b5 3f bd 47 ad 21 be 6b 45 00 be 4a 32 4a bd
       -0.046804283 -0.15788756 -0.12526481 -0.049364366
000090 f3 07 8b 3e cf 6f e6 3c 9b dd 30 bd b3 c4 31 be
       0.27154502 0.028129486 -0.04318009 -0.17360191
0000a0 80 40 45 3e f8 da 12 3d 74 6d 67 bd 8a 56 3c bc
       0.19262886 0.035853356 -0.056500867 -0.011495242
0000b0 b6 31 7a be b8 50 4c 3d b1 43 b3 3d dd 70 db 3d
       -0.24433026 0.049881667 0.087531455 0.10714886
0000c0 ec a3 46 3c fd 9e 26 bc 84 6f fd b9 65 35 71 3c
       0.012124043 -0.010169742 -0.00048339006 0.014722203
0000d0 40 70 06 3e 0b f1 6b 3c 26 8b 29 be 73 89 a2 3d
       0.13128757 0.014400731 -0.16556987 0.079363726
0000e0 75 09 2c 3e a3 d3 cd be e5 16 d3 3e cf d7 14 3e
       0.16800483 -0.40200529 0.41228405 0.1453545
0000f0 a3 bf 64 be 74 96 71 3c 20 05 cb bd a0 31 14 be
       -0.22338729 0.0147453435 -0.09913087 -0.14472055
000100 5a da 71 3d 0d 35 92 3c bf a5 9d 3e 96 74 77 be
       0.059046127 0.017847562 0.30790517 -0.24165568
000110 4e 83 aa 3a 98 41 00 be fb 8b 17 3e 6a c5 92 bd
       0.0013009103 -0.12525022 0.14799492 -0.0716656
000120 ab ef 88 3c 35 9d 1d 3e d1 14 9b 3d 45 bb e5 be
       0.016715845 0.15392001 0.0757233 -0.44869438
000130 87 43 8a 3d 69 35 6c bd 0e bd b8 3d d0 8b 21 3d
       0.06751161 -0.057668123 0.09020434 0.039439976
000140 99 7a 6d 3d bd c9 07 be e0 7a ac 3c 72 a0 9c bd
       0.057978246 -0.13260551 0.021054685 -0.0764779
000150 83 35 08 be a3 d2 89 3e af 3a 71 3a f1 92 60 3d
       -0.13301663 0.26918516 0.0009202165 0.054827634
000160 25 5a b9 3e 2d b7 98 be 9e 5c 26 bd dc 51 95 bc
       0.36201587 -0.29827252 -0.04061567 -0.01822751
000170 86 22 f3 3d 04 d5 2c 3d 40 d2 3e 3d f9 c5 22 be
       0.11871819 0.042195335 0.04658723 -0.15895833
000180 c9 d9 6d 3b 94 a8 18 3d 07 d6 03 be 45 fe 27 3c
       0.003629314 0.037270144 -0.12874614 0.010253494
000190 e7 4b 8d 3e fa 19 5d be 4d eb 1b 3e 79 7b cb 3d
       0.2759697 -0.2159194 0.15226479 0.0993566
0001a0 53 aa 00 be 54 81 23 3d c7 2c 0d 3e e9 cf 92 be
       -0.12564974 0.03991826 0.13786612 -0.28674248
0001b0 4a 0b 91 bd dd e5 f3 3d a2 4f c0 be f7 88 34 3d
       -0.07082231 0.11909077 -0.37560755 0.044075932
0001c0 d3 a6 4e bd 8a 57 a8 bc 58 23 89 bc 8b 85 55 3d
       -0.050452065 -0.020549554 -0.016740486 0.05212931
0001d0 fa 3c 15 3e 2f 3d 12 be f3 8e b9 3d cd f2 57 3d
       0.14574042 -0.14281152 0.090604685 0.052721787
0001e0 89 01 99 3e 2d 3b 77 3d 40 7e 8f 3d a6 ad 83 3d
       0.29883984 0.06035917 0.07006502 0.06429605
0001f0 b4 41 3a be f8 44 08 be 18 e7 4b 3e 56 38 b1 bc
       -0.18189126 -0.1330756 0.19912374 -0.021633308
000200 06 f6 c7 3d 84 8a 43 3d 7e d0 aa 3e f7 67 a3 be
       0.09763722 0.04773952 0.33362192 -0.31915256
000210 41 62 84 3d 50 56 e3 bd 9d 2a 2a 3e 2f 97 ed bd
       0.06464053 -0.11100447 0.16617818 -0.116011016
000220 cd f6 d1 3d 45 5b 5d 3e df 74 54 3c d1 05 e6 be
       0.10252152 0.21616848 0.012967317 -0.44926313
000230 74 3a df 3d bb 13 14 bd 46 d3 50 3d 2f 0b fb bd
       0.10899821 -0.03615163 0.050982736 -0.122579925
000240 84 84 f9 3d 8d d0 19 be d6 67 5c bc 7c 4f 9c bc
       0.121834785 -0.15020962 -0.013452491 -0.01908087
000250 c5 f2 b1 bd 63 92 62 3e f3 fb 1a be f1 9d 71 3d
       -0.08688883 0.22126155 -0.15135173 0.058988515
000260 70 94 b0 3e 6f 2c 73 be 69 df 01 bd a0 69 ab bd
       0.3448825 -0.23747419 -0.0317072 -0.08369756
000270 8f ad 50 3e f1 7e 51 3d 82 c5 a5 3d ef fc 2d be
       0.20378707 0.05114645 0.08094312 -0.16991018
000280 ee 4c b4 3e f3 00 10 bd 25 1f 30 be 81 73 b9 3c
       0.35214943 -0.035157155 -0.1719938 0.022638084
000290 db a8 c8 3d b0 b8 32 bd 5f fa 8b be 74 c2 a5 bb
       0.097978316 -0.043633163 -0.27339455 -0.005058581
0002a0 4d 3c 1e 3e ab 4b 67 3d 18 45 cc 3d b4 05 58 be
       0.1545269 0.056468647 0.09974116 -0.21095926
0002b0 a9 21 18 3e 57 a5 f9 3e 5f 36 4a 3e 50 94 1f be
       0.1485659 0.48758957 0.19747303 -0.1558392
0002c0 6e a5 c2 3d 5d 71 e9 3c 6f da dd bd 92 b5 4d bd
       0.095042095 0.028496439 -0.108326785 -0.050221987
0002d0 c8 3d 79 bd d9 47 bd ba 39 8a 0f 3e e0 d6 6f be
       -0.060849935 -0.0014440968 0.14017572 -0.23421812
0002e0 f3 b6 53 3e d1 2e ab 3e b5 87 06 3d 92 46 4d be
       0.20675258 0.33434156 0.032844264 -0.20046452
0002f0 d6 54 89 bc e9 82 6e bd 22 90 f8 3c 4a 82 ca bd
       -0.016764086 -0.058230314 0.030342165 -0.09888132
000300 ef cc 75 3d 93 7b 14 3e 81 78 14 be 06 05 de be
       0.060009893 0.14500265 -0.14499094 -0.43363208
000310 59 15 7b 3d c6 c4 17 be ca fa c0 3e ff ce ba 3d
       0.061299656 -0.14821157 0.37691337 0.091215126
000320 62 53 8d bb 6f 5c 35 3d 24 db 26 3d e4 3d b0 bd
       -0.0043129185 0.044277605 0.040736333 -0.08605555
000330 3e 73 20 3e 9d 80 8d bd 9d c2 a7 be 53 8f 62 be
       0.15668961 -0.06909297 -0.32765666 -0.22124986
000340 b5 b5 d2 bc d6 4f 09 bd f8 6c 1d 3e 07 22 d0 3d
       -0.02572141 -0.033523403 0.153736 0.1016274
000350 9a 2d 85 be 4b 14 72 be 6a a5 60 bd ae 9c e4 bc
       -0.26011354 -0.23640554 -0.05484525 -0.027906742
000360 ce 17 31 3e be ff 83 be 23 06 40 bc f7 6b 53 be
       0.17294237 -0.25781053 -0.011720213 -0.20646654
000370 a6 0f 51 bb 02 b1 5d bd 84 a3 2f 3e cf ab 86 3c
       -0.0031900196 -0.054123886 0.1715222 0.016439347
000380 39 ed 95 be 3b 5b 4f be 61 41 79 3e 3c 49 0c 3d
       -0.2928255 -0.20249645 0.24341346 0.03424953
000390 1b 45 5a 3e de 8b 05 3d a1 e2 73 3e d8 55 d3 bd
       0.21315424 0.03260409 0.23816921 -0.10319108
0003a0 ee 8e 81 bd 3c 9a 16 3e 1f af 87 3d 6f b8 89 bd
       -0.0632609 0.14707273 0.066251986 -0.06724631
0003b0 aa c6 8f bd 29 66 a1 be 58 35 8d bd a6 07 6c be
       -0.07020314 -0.31523255 -0.0689494 -0.23049793
0003c0 28 06 59 3e 43 30 6d be e1 c6 9f be 6c 20 a9 3e
       0.21193755 -0.23162942 -0.3120642 0.33032548
0003d0 eb d5 10 be f7 cf 4c bd 58 7d cc 3d 83 e7 93 3e
       -0.14144103 -0.05000302 0.09984845 0.28887567
0003e0 99 bf e4 3d a0 3e 1a 3e 32 e5 17 3e b0 07 2b 3c
       0.11169357 0.15062952 0.14833525 0.010438845
0003f0 9c 28 19 3e 1c ae 2c be 34 7d 51 3e 21 db 8d 3d
       0.14956897 -0.16863292 0.20457917 0.06926561

context_transformer_0/ffn_layer_2/intermediate_dense/einsum/Einsum;context_transformer_0/ffn_layer_2/intermediate_dense/Relu;context_transformer_0/ffn_layer_2/intermediate_dense/add f4 [32]
000000 b6 7d 5c be 2c 23 e8 be 27 11 76 be 8d 06 1b bf
       -0.2153233 -0.45339334 -0.2402998 -0.6055687
000010 03 b1 d3 be a3 82 6c be 16 35 a0 bd 29 5c 8c bd
       -0.41345987 -0.23096709 -0.07822625 -0.06853516
000020 2b 58 35 be 82 b6 8f be de 52 81 be 8b 34 58 3e
       -0.17709415 -0.2806893 -0.25258535 0.21113794
000030 3d 7b 1f be 49 92 87 be 04 3f 29 bd 1a df fa be
       -0.15574355 -0.26478794 -0.041319862 -0.48998338
000040 bc be 8d 3c 35 1c 7c 3d 7c 46 04 3e cc 2f 3e be
       0.017302863 0.061550338 0.12917513 -0.1857292
000050 5e 28 4f 3d b4 81 d9 bc a9 68 fc bd 09 2c 47 be
       0.050575607 -0.026551105 -0.1232465 -0.19450392
000060 20 da 61 be 74 4f 92 be 2c 1b cc be e0 67 91 be
       -0.22055864 -0.28576243 -0.3986448 -0.28399563
000070 48 f3 6e be 62 0b 2c be 25 64 ba bd 70 51 2b be
       -0.23334992 -0.16801217 -0.09101132 -0.16730285
